…
from IPython.display import SVG
from keras.utils.vis_utils import model_to_dot


netGB = UNET_G(imageSize, nc_in, nc_out, ngf)
netGA = UNET_G(imageSize, nc_out, nc_in, ngf)
#SVG(model_to_dot(netG, show_shapes=True).create(prog='dot', format='svg'))
netGA.summary()

```

    ____________________________________________________________________________________________________
    Layer (type)                     Output Shape          Param #     Connected to                     
    ====================================================================================================
    input_8 (InputLayer)             (None, 3, 32, 32)     0                                            
    ____________________________________________________________________________________________________
    conv_32 (Conv2D)                 (None, 16, 16, 16)    784         input_8[0][0]                    
    ____________________________________________________________________________________________________
    leaky_re_lu_31 (LeakyReLU)       (None, 16, 16, 16)    0           conv_32[0][0]                    
    ____________________________________________________________________________________________________
    conv_16 (Conv2D)                 (None, 32, 8, 8)      8192        leaky_re_lu_31[0][0]             
    ____________________________________________________________________________________________________
    batch_normalization_38 (BatchNor (None, 32, 8, 8)      128         conv_16[0][0]                    
    ____________________________________________________________________________________________________
    leaky_re_lu_32 (LeakyReLU)       (None, 32, 8, 8)      0           batch_normalization_38[0][0]     
    ____________________________________________________________________________________________________
    conv_8 (Conv2D)                  (None, 64, 4, 4)      32768       leaky_re_lu_32[0][0]             
    ____________________________________________________________________________________________________
    batch_normalization_39 (BatchNor (None, 64, 4, 4)      256         conv_8[0][0]                     
    ____________________________________________________________________________________________________
    leaky_re_lu_33 (LeakyReLU)       (None, 64, 4, 4)      0           batch_normalization_39[0][0]     
    ____________________________________________________________________________________________________
    conv_4 (Conv2D)                  (None, 128, 2, 2)     131072      leaky_re_lu_33[0][0]             
    ____________________________________________________________________________________________________
    batch_normalization_40 (BatchNor (None, 128, 2, 2)     512         conv_4[0][0]                     
    ____________________________________________________________________________________________________
    leaky_re_lu_34 (LeakyReLU)       (None, 128, 2, 2)     0           batch_normalization_40[0][0]     
    ____________________________________________________________________________________________________
    conv_2 (Conv2D)                  (None, 128, 1, 1)     262272      leaky_re_lu_34[0][0]             
    ____________________________________________________________________________________________________
    activation_21 (Activation)       (None, 128, 1, 1)     0           conv_2[0][0]                     
    ____________________________________________________________________________________________________
    convt.2 (Conv2DTranspose)        (None, 128, 4, 4)     262144      activation_21[0][0]              
    ____________________________________________________________________________________________________
    cropping2d_18 (Cropping2D)       (None, 128, 2, 2)     0           convt.2[0][0]                    
    ____________________________________________________________________________________________________
    batch_normalization_41 (BatchNor (None, 128, 2, 2)     512         cropping2d_18[0][0]              
    ____________________________________________________________________________________________________
    dropout_10 (Dropout)             (None, 128, 2, 2)     0           batch_normalization_41[0][0]     
    ____________________________________________________________________________________________________
    concatenate_15 (Concatenate)     (None, 256, 2, 2)     0           batch_normalization_40[0][0]     
                                                                       dropout_10[0][0]                 
    ____________________________________________________________________________________________________
    activation_22 (Activation)       (None, 256, 2, 2)     0           concatenate_15[0][0]             
    ____________________________________________________________________________________________________
    convt.4 (Conv2DTranspose)        (None, 64, 6, 6)      262144      activation_22[0][0]              
    ____________________________________________________________________________________________________
    cropping2d_19 (Cropping2D)       (None, 64, 4, 4)      0           convt.4[0][0]                    
    ____________________________________________________________________________________________________
    batch_normalization_42 (BatchNor (None, 64, 4, 4)      256         cropping2d_19[0][0]              
    ____________________________________________________________________________________________________
    dropout_11 (Dropout)             (None, 64, 4, 4)      0           batch_normalization_42[0][0]     
    ____________________________________________________________________________________________________
    concatenate_16 (Concatenate)     (None, 128, 4, 4)     0           batch_normalization_39[0][0]     
                                                                       dropout_11[0][0]                 
    ____________________________________________________________________________________________________
    activation_23 (Activation)       (None, 128, 4, 4)     0           concatenate_16[0][0]             
    ____________________________________________________________________________________________________
    convt.8 (Conv2DTranspose)        (None, 32, 10, 10)    65536       activation_23[0][0]              
    ____________________________________________________________________________________________________
    cropping2d_20 (Cropping2D)       (None, 32, 8, 8)      0           convt.8[0][0]                    
    ____________________________________________________________________________________________________
    batch_normalization_43 (BatchNor (None, 32, 8, 8)      128         cropping2d_20[0][0]              
    ____________________________________________________________________________________________________
    dropout_12 (Dropout)             (None, 32, 8, 8)      0           batch_normalization_43[0][0]     
    ____________________________________________________________________________________________________
    concatenate_17 (Concatenate)     (None, 64, 8, 8)      0           batch_normalization_38[0][0]     
                                                                       dropout_12[0][0]                 
    ____________________________________________________________________________________________________
    activation_24 (Activation)       (None, 64, 8, 8)      0           concatenate_17[0][0]             
    ____________________________________________________________________________________________________
    convt.16 (Conv2DTranspose)       (None, 16, 18, 18)    16384       activation_24[0][0]              
    ____________________________________________________________________________________________________
    cropping2d_21 (Cropping2D)       (None, 16, 16, 16)    0           convt.16[0][0]                   
    ____________________________________________________________________________________________________
    batch_normalization_44 (BatchNor (None, 16, 16, 16)    64          cropping2d_21[0][0]              
    ____________________________________________________________________________________________________
    concatenate_18 (Concatenate)     (None, 32, 16, 16)    0           conv_32[0][0]                    
                                                                       batch_normalization_44[0][0]     
    ____________________________________________________________________________________________________
    activation_25 (Activation)       (None, 32, 16, 16)    0           concatenate_18[0][0]             
    ____________________________________________________________________________________________________
    convt.32 (Conv2DTranspose)       (None, 3, 34, 34)     1539        activation_25[0][0]              
    ____________________________________________________________________________________________________
    cropping2d_22 (Cropping2D)       (None, 3, 32, 32)     0           convt.32[0][0]                   
    ____________________________________________________________________________________________________
    activation_26 (Activation)       (None, 3, 32, 32)     0           cropping2d_22[0][0]              
    ====================================================================================================
    Total params: 1,044,691
    Trainable params: 1,043,763
    Non-trainable params: 928
    ____________________________________________________________________________________________________
    


```python
from keras.optimizers import RMSprop, SGD, Adam
…
